…
I0704 15:48:10.500003 11785 solver.cpp:92] Creating training net from train_net file: /home/wen/caffe-master/semantic/fcn/my_fcn32s/train.prototxt
I0704 15:48:10.500560 11785 net.cpp:51] Initializing net from parameters: 
state {
  phase: TRAIN
}
layer {
  name: "data"
  type: "Python"
  top: "data"
  top: "label"
  python_param {
    module: "voc_layers"
    layer: "SBDDSegDataLayer"
    param_str: "{\'sbdd_dir\': \'/home/wen/caffe-master/semantic/fcn/data/sbdd/benchmark/benchmark_RELEASE/dataset\', \'seed\': 1337, \'mean\': (104.00699, 116.66877, 122.67892), \'split\': \'train\'}"
  }
}
layer {
  name: "conv1_1"
  type: "Convolution"
  bottom: "data"
  top: "conv1_1"
  param {
    lr_mult: 1
    decay_mult: 1
  }
  param {
    lr_mult: 2
    decay_mult: 0
  }
  convolution_param {
    num_output: 64
    bias_term: true
    pad: 10
    kernel_size: 3
    stride: 1
    weight_filler {
      type: "xavier"
    }
    bias_filler {
      type: "constant"
    }
  }
}
layer {
  name: "relu1_1"
  type: "ReLU"
  bottom: "conv1_1"
  top: "conv1_1"
}
layer {
  name: "conv1_2"
  type: "Convolution"
  bottom: "conv1_1"
  top: "conv1_2"
  param {
    lr_mult: 1
    decay_mult: 1
  }
  param {
    lr_mult: 2
    decay_mult: 0
  }
  convolution_param {
    num_output: 64
    bias_term: true
    pad: 1
    kernel_size: 3
    stride: 1
    weight_filler {
      type: "xavier"
    }
    bias_filler {
      type: "constant"
    }
  }
}
layer {
  name: "relu1_2"
  type: "ReLU"
  bottom: "conv1_2"
  top: "conv1_2"
}
layer {
  name: "pool1"
  type: "Pooling"
  bottom: "conv1_2"
  top: "pool1"
  pooling_param {
    pool: MAX
    kernel_size: 2
    stride: 2
  }
}
layer {
  name: "conv2_1"
  type: "Convolution"
  bottom: "pool1"
  top: "conv2_1"
  param {
    lr_mult: 1
    decay_mult: 1
  }
  param {
    lr_mult: 2
    decay_mult: 0
  }
  convolution_param {
    num_output: 128
    bias_term: true
    pad: 1
    kernel_size: 3
    stride: 1
    weight_filler {
      type: "xavier"
    }
    bias_filler {
      type: "constant"
    }
  }
}
layer {
  name: "relu2_1"
  type: "ReLU"
  bottom: "conv2_1"
  top: "conv2_1"
}
layer {
  name: "conv2_2"
  type: "Convolution"
  bottom: "conv2_1"
  top: "conv2_2"
  param {
    lr_mult: 1
    decay_mult: 1
  }
  param {
    lr_mult: 2
    decay_mult: 0
  }
  convolution_param {
    num_output: 128
    bias_term: true
    pad: 1
    kernel_size: 3
    stride: 1
    weight_filler {
      type: "xavier"
    }
    bias_filler {
      type: "constant"
    }
  }
}
layer {
  name: "relu2_2"
  type: "ReLU"
  bottom: "conv2_2"
  top: "conv2_2"
}
layer {
  name: "pool2"
  type: "Pooling"
  bottom: "conv2_2"
  top: "pool2"
  pooling_param {
    pool: MAX
    kernel_size: 2
    stride: 2
  }
}
layer {
  name: "conv3_1"
  type: "Convolution"
  bottom: "pool2"
  top: "conv3_1"
  param {
    lr_mult: 1
    decay_mult: 1
  }
  param {
    lr_mult: 2
    decay_mult: 0
  }
  convolution_param {
    num_output: 256
    bias_term: true
    pad: 1
    kernel_size: 3
    stride: 1
    weight_filler {
      type: "xavier"
    }
    bias_filler {
      type: "constant"
    }
  }
}
layer {
  name: "relu3_1"
  type: "ReLU"
  bottom: "conv3_1"
  top: "conv3_1"
}
layer {
  name: "conv3_2"
  type: "Convolution"
  bottom: "conv3_1"
  top: "conv3_2"
  param {
    lr_mult: 1
    decay_mult: 1
  }
  param {
    lr_mult: 2
    decay_mult: 0
  }
  convolution_param {
    num_output: 256
    bias_term: true
    pad: 1
    kernel_size: 3
    stride: 1
    weight_filler {
      type: "xavier"
    }
    bias_filler {
      type: "constant"
    }
  }
}
layer {
  name: "relu3_2"
  type: "ReLU"
  bottom: "conv3_2"
  top: "conv3_2"
}
layer {
  name: "conv3_3"
  type: "Convolution"
  bottom: "conv3_2"
  top: "conv3_3"
  param {
    lr_mult: 1
    decay_mult: 1
  }
  param {
    lr_mult: 2
    decay_mult: 0
  }
  convolution_param {
    num_output: 256
    bias_term: true
    pad: 1
    kernel_size: 3
    stride: 1
    weight_filler {
      type: "xavier"
    }
    bias_filler {
      type: "constant"
    }
  }
}
layer {
  name: "relu3_3"
  type: "ReLU"
  bottom: "conv3_3"
  top: "conv3_3"
}
layer {
  name: "pool3"
  type: "Pooling"
  bottom: "conv3_3"
  top: "pool3"
  pooling_param {
    pool: MAX
    kernel_size: 2
    stride: 2
  }
}
layer {
  name: "conv4_1"
  type: "Convolution"
  bottom: "pool3"
  top: "conv4_1"
  param {
    lr_mult: 1
    decay_mult: 1
  }
  param {
    lr_mult: 2
    decay_mult: 0
  }
  convolution_param {
    num_output: 512
    bias_term: true
    pad: 1
    kernel_size: 3
    stride: 1
    weight_filler {
      type: "xavier"
    }
    bias_filler {
      type: "constant"
    }
  }
}
layer {
  name: "relu4_1"
  type: "ReLU"
  bottom: "conv4_1"
  top: "conv4_1"
}
layer {
  name: "conv4_2"
  type: "Convolution"
  bottom: "conv4_1"
  top: "conv4_2"
  param {
    lr_mult: 1
    decay_mult: 1
  }
  param {
    lr_mult: 2
    decay_mult: 0
  }
  convolution_param {
    num_output: 512
    bias_term: true
    pad: 1
    kernel_size: 3
    stride: 1
    weight_filler {
      type: "xavier"
    }
    bias_filler {
      type: "constant"
    }
  }
}
layer {
  name: "relu4_2"
  type: "ReLU"
  bottom: "conv4_2"
  top: "conv4_2"
}
layer {
  name: "conv4_3"
  type: "Convolution"
  bottom: "conv4_2"
  top: "conv4_3"
  param {
    lr_mult: 1
    decay_mult: 1
  }
  param {
    lr_mult: 2
    decay_mult: 0
  }
  convolution_param {
    num_output: 512
    bias_term: true
    pad: 1
    kernel_size: 3
    stride: 1
    weight_filler {
      type: "xavier"
    }
    bias_filler {
      type: "constant"
    }
  }
}
layer {
  name: "relu4_3"
  type: "ReLU"
  bottom: "conv4_3"
  top: "conv4_3"
}
layer {
  name: "pool4"
  type: "Pooling"
  bottom: "conv4_3"
  top: "pool4"
  pooling_param {
    pool: MAX
    kernel_size: 2
    stride: 2
  }
}
layer {
  name: "conv5_1"
  type: "Convolution"
  bottom: "pool4"
  top: "conv5_1"
  param {
    lr_mult: 1
    decay_mult: 1
  }
  param {
    lr_mult: 2
    decay_mult: 0
  }
  convolution_param {
    num_output: 512
    bias_term: true
    pad: 1
    kernel_size: 3
    stride: 1
    weight_filler {
      type: "xavier"
    }
    bias_filler {
      type: "constant"
    }
  }
}
layer {
  name: "relu5_1"
  type: "ReLU"
  bottom: "conv5_1"
  top: "conv5_1"
}
layer {
  name: "conv5_2"
  type: "Convolution"
  bottom: "conv5_1"
  top: "conv5_2"
  param {
    lr_mult: 1
    decay_mult: 1
  }
  param {
    lr_mult: 2
    decay_mult: 0
  }
  convolution_param {
    num_output: 512
    bias_term: true
    pad: 1
    kernel_size: 3
    stride: 1
    weight_filler {
      type: "xavier"
    }
    bias_filler {
      type: "constant"
    }
  }
}
layer {
  name: "relu5_2"
  type: "ReLU"
  bottom: "conv5_2"
  top: "conv5_2"
}
layer {
  name: "conv5_3"
  type: "Convolution"
  bottom: "conv5_2"
  top: "conv5_3"
  param {
    lr_mult: 1
    decay_mult: 1
  }
  param {
    lr_mult: 2
    decay_mult: 0
  }
  convolution_param {
    num_output: 512
    bias_term: true
    pad: 1
    kernel_size: 3
    stride: 1
    weight_filler {
      type: "xavier"
    }
    bias_filler {
      type: "constant"
    }
  }
}
layer {
  name: "relu5_3"
  type: "ReLU"
  bottom: "conv5_3"
  top: "conv5_3"
}
layer {
  name: "pool5"
  type: "Pooling"
  bottom: "conv5_3"
  top: "pool5"
  pooling_param {
    pool: MAX
    kernel_size: 2
    stride: 2
  }
}
layer {
  name: "fc6_new"
  type: "Convolution"
  bottom: "pool5"
  top: "fc6_new"
  param {
    lr_mult: 1
    decay_mult: 1
  }
  param {
    lr_mult: 2
    decay_mult: 0
  }
  convolution_param {
    num_output: 1024
    bias_term: true
    pad: 0
    kernel_size: 3
    stride: 1
    weight_filler {
      type: "xavier"
    }
    bias_filler {
      type: "constant"
    }
  }
}
layer {
  name: "relu6"
  type: "ReLU"
  bottom: "fc6_new"
  top: "fc6_new"
}
layer {
  name: "drop6"
  type: "Dropout"
  bottom: "fc6_new"
  top: "fc6_new"
  dropout_param {
    dropout_ratio: 0.5
  }
}
layer {
  name: "fc7_new"
  type: "Convolution"
  bottom: "fc6_new"
  top: "fc7_new"
  param {
    lr_mult: 1
    decay_mult: 1
  }
  param {
    lr_mult: 2
    decay_mult: 0
  }
  convolution_param {
    num_output: 1024
    bias_term: true
    pad: 0
    kernel_size: 1
    stride: 1
    weight_filler {
      type: "xavier"
    }
    bias_filler {
      type: "constant"
    }
  }
}
layer {
  name: "relu7"
  type: "ReLU"
  bottom: "fc7_new"
  top: "fc7_new"
}
layer {
  name: "drop7"
  type: "Dropout"
  bottom: "fc7_new"
  top: "fc7_new"
  dropout_param {
    dropout_ratio: 0.5
  }
}
layer {
  name: "score_fr_new"
  type: "Convolution"
  bottom: "fc7_new"
  top: "score_fr_new"
  param {
    lr_mult: 1
    decay_mult: 1
  }
  param {
    lr_mult: 2
    decay_mult: 0
  }
  convolution_param {
    num_output: 21
    pad: 0
    kernel_size: 1
    weight_filler {
      type: "xavier"
    }
    bias_filler {
      type: "constant"
    }
  }
}
layer {
  name: "upscore_new"
  type: "Deconvolution"
  bottom: "score_fr_new"
  top: "upscore_new"
  param {
    lr_mult: 0
  }
  convolution_param {
    num_output: 21
    bias_term: false
    kernel_size: 128
    stride: 8
  }
}
layer {
  name: "score"
  type: "Crop"
  bottom: "upscore_new"
  bottom: "data"
  top: "score"
}
layer {
  name: "loss"
  type: "SoftmaxWithLoss"
  bottom: "score"
  bottom: "label"
  top: "loss"
  loss_param {
    ignore_label: 255
    normalize: false
  }
}
I0704 15:48:10.500756 11785 layer_factory.hpp:77] Creating layer data
I0704 15:48:10.501216 11785 net.cpp:84] Creating Layer data
I0704 15:48:10.501226 11785 net.cpp:380] data -> data
I0704 15:48:10.501251 11785 net.cpp:380] data -> label
I0704 15:48:10.507833 11785 net.cpp:122] Setting up data
I0704 15:48:10.507869 11785 net.cpp:129] Top shape: 1 3 128 128 (49152)
I0704 15:48:10.507874 11785 net.cpp:129] Top shape: 1 1 128 128 (16384)
I0704 15:48:10.507876 11785 net.cpp:137] Memory required for data: 262144
I0704 15:48:10.507880 11785 layer_factory.hpp:77] Creating layer data_data_0_split
I0704 15:48:10.507905 11785 net.cpp:84] Creating Layer data_data_0_split
I0704 15:48:10.507911 11785 net.cpp:406] data_data_0_split <- data
I0704 15:48:10.507937 11785 net.cpp:380] data_data_0_split -> data_data_0_split_0
I0704 15:48:10.507947 11785 net.cpp:380] data_data_0_split -> data_data_0_split_1
I0704 15:48:10.507989 11785 net.cpp:122] Setting up data_data_0_split
I0704 15:48:10.507995 11785 net.cpp:129] Top shape: 1 3 128 128 (49152)
I0704 15:48:10.507998 11785 net.cpp:129] Top shape: 1 3 128 128 (49152)
I0704 15:48:10.508000 11785 net.cpp:137] Memory required for data: 655360
I0704 15:48:10.508003 11785 layer_factory.hpp:77] Creating layer conv1_1
I0704 15:48:10.508013 11785 net.cpp:84] Creating Layer conv1_1
I0704 15:48:10.508015 11785 net.cpp:406] conv1_1 <- data_data_0_split_0
I0704 15:48:10.508020 11785 net.cpp:380] conv1_1 -> conv1_1
I0704 15:48:10.508911 11785 net.cpp:122] Setting up conv1_1
I0704 15:48:10.508921 11785 net.cpp:129] Top shape: 1 64 146 146 (1364224)
I0704 15:48:10.508924 11785 net.cpp:137] Memory required for data: 6112256
I0704 15:48:10.508949 11785 layer_factory.hpp:77] Creating layer relu1_1
I0704 15:48:10.508967 11785 net.cpp:84] Creating Layer relu1_1
I0704 15:48:10.508970 11785 net.cpp:406] relu1_1 <- conv1_1
I0704 15:48:10.508975 11785 net.cpp:367] relu1_1 -> conv1_1 (in-place)
I0704 15:48:10.508980 11785 net.cpp:122] Setting up relu1_1
I0704 15:48:10.509001 11785 net.cpp:129] Top shape: 1 64 146 146 (1364224)
I0704 15:48:10.509003 11785 net.cpp:137] Memory required for data: 11569152
I0704 15:48:10.509007 11785 layer_factory.hpp:77] Creating layer conv1_2
I0704 15:48:10.509030 11785 net.cpp:84] Creating Layer conv1_2
I0704 15:48:10.509053 11785 net.cpp:406] conv1_2 <- conv1_1
I0704 15:48:10.509059 11785 net.cpp:380] conv1_2 -> conv1_2
I0704 15:48:10.509380 11785 net.cpp:122] Setting up conv1_2
I0704 15:48:10.509387 11785 net.cpp:129] Top shape: 1 64 146 146 (1364224)
I0704 15:48:10.509407 11785 net.cpp:137] Memory required for data: 17026048
I0704 15:48:10.509413 11785 layer_factory.hpp:77] Creating layer relu1_2
I0704 15:48:10.509416 11785 net.cpp:84] Creating Layer relu1_2
I0704 15:48:10.509420 11785 net.cpp:406] relu1_2 <- conv1_2
I0704 15:48:10.509426 11785 net.cpp:367] relu1_2 -> conv1_2 (in-place)
I0704 15:48:10.509451 11785 net.cpp:122] Setting up relu1_2
I0704 15:48:10.509469 11785 net.cpp:129] Top shape: 1 64 146 146 (1364224)
I0704 15:48:10.509474 11785 net.cpp:137] Memory required for data: 22482944
I0704 15:48:10.509476 11785 layer_factory.hpp:77] Creating layer pool1
I0704 15:48:10.509483 11785 net.cpp:84] Creating Layer pool1
I0704 15:48:10.509487 11785 net.cpp:406] pool1 <- conv1_2
I0704 15:48:10.509491 11785 net.cpp:380] pool1 -> pool1
I0704 15:48:10.509533 11785 net.cpp:122] Setting up pool1
I0704 15:48:10.509538 11785 net.cpp:129] Top shape: 1 64 73 73 (341056)
I0704 15:48:10.509541 11785 net.cpp:137] Memory required for data: 23847168
I0704 15:48:10.509543 11785 layer_factory.hpp:77] Creating layer conv2_1
I0704 15:48:10.509548 11785 net.cpp:84] Creating Layer conv2_1
I0704 15:48:10.509552 11785 net.cpp:406] conv2_1 <- pool1
I0704 15:48:10.509557 11785 net.cpp:380] conv2_1 -> conv2_1
I0704 15:48:10.510694 11785 net.cpp:122] Setting up conv2_1
I0704 15:48:10.510721 11785 net.cpp:129] Top shape: 1 128 73 73 (682112)
I0704 15:48:10.510725 11785 net.cpp:137] Memory required for data: 26575616
I0704 15:48:10.510756 11785 layer_factory.hpp:77] Creating layer relu2_1
I0704 15:48:10.510776 11785 net.cpp:84] Creating Layer relu2_1
I0704 15:48:10.510777 11785 net.cpp:406] relu2_1 <- conv2_1
I0704 15:48:10.510803 11785 net.cpp:367] relu2_1 -> conv2_1 (in-place)
I0704 15:48:10.510825 11785 net.cpp:122] Setting up relu2_1
I0704 15:48:10.510828 11785 net.cpp:129] Top shape: 1 128 73 73 (682112)
I0704 15:48:10.510830 11785 net.cpp:137] Memory required for data: 29304064
I0704 15:48:10.510852 11785 layer_factory.hpp:77] Creating layer conv2_2
I0704 15:48:10.510859 11785 net.cpp:84] Creating Layer conv2_2
I0704 15:48:10.510877 11785 net.cpp:406] conv2_2 <- conv2_1
I0704 15:48:10.510884 11785 net.cpp:380] conv2_2 -> conv2_2
I0704 15:48:10.511638 11785 net.cpp:122] Setting up conv2_2
I0704 15:48:10.511646 11785 net.cpp:129] Top shape: 1 128 73 73 (682112)
I0704 15:48:10.511647 11785 net.cpp:137] Memory required for data: 32032512
I0704 15:48:10.511651 11785 layer_factory.hpp:77] Creating layer relu2_2
I0704 15:48:10.511674 11785 net.cpp:84] Creating Layer relu2_2
I0704 15:48:10.511677 11785 net.cpp:406] relu2_2 <- conv2_2
I0704 15:48:10.511680 11785 net.cpp:367] relu2_2 -> conv2_2 (in-place)
I0704 15:48:10.511687 11785 net.cpp:122] Setting up relu2_2
I0704 15:48:10.511690 11785 net.cpp:129] Top shape: 1 128 73 73 (682112)
I0704 15:48:10.511694 11785 net.cpp:137] Memory required for data: 34760960
I0704 15:48:10.511698 11785 layer_factory.hpp:77] Creating layer pool2
I0704 15:48:10.511703 11785 net.cpp:84] Creating Layer pool2
I0704 15:48:10.511709 11785 net.cpp:406] pool2 <- conv2_2
I0704 15:48:10.511728 11785 net.cpp:380] pool2 -> pool2
I0704 15:48:10.511754 11785 net.cpp:122] Setting up pool2
I0704 15:48:10.511759 11785 net.cpp:129] Top shape: 1 128 37 37 (175232)
I0704 15:48:10.511761 11785 net.cpp:137] Memory required for data: 35461888
I0704 15:48:10.511764 11785 layer_factory.hpp:77] Creating layer conv3_1
I0704 15:48:10.511770 11785 net.cpp:84] Creating Layer conv3_1
I0704 15:48:10.511771 11785 net.cpp:406] conv3_1 <- pool2
I0704 15:48:10.511776 11785 net.cpp:380] conv3_1 -> conv3_1
I0704 15:48:10.513589 11785 net.cpp:122] Setting up conv3_1
I0704 15:48:10.513600 11785 net.cpp:129] Top shape: 1 256 37 37 (350464)
I0704 15:48:10.513602 11785 net.cpp:137] Memory required for data: 36863744
I0704 15:48:10.513610 11785 layer_factory.hpp:77] Creating layer relu3_1
I0704 15:48:10.513614 11785 net.cpp:84] Creating Layer relu3_1
I0704 15:48:10.513617 11785 net.cpp:406] relu3_1 <- conv3_1
I0704 15:48:10.513620 11785 net.cpp:367] relu3_1 -> conv3_1 (in-place)
I0704 15:48:10.513625 11785 net.cpp:122] Setting up relu3_1
I0704 15:48:10.513628 11785 net.cpp:129] Top shape: 1 256 37 37 (350464)
I0704 15:48:10.513631 11785 net.cpp:137] Memory required for data: 38265600
I0704 15:48:10.513633 11785 layer_factory.hpp:77] Creating layer conv3_2
I0704 15:48:10.513639 11785 net.cpp:84] Creating Layer conv3_2
I0704 15:48:10.513659 11785 net.cpp:406] conv3_2 <- conv3_1
I0704 15:48:10.513664 11785 net.cpp:380] conv3_2 -> conv3_2
I0704 15:48:10.517210 11785 net.cpp:122] Setting up conv3_2
I0704 15:48:10.517227 11785 net.cpp:129] Top shape: 1 256 37 37 (350464)
I0704 15:48:10.517230 11785 net.cpp:137] Memory required for data: 39667456
I0704 15:48:10.517253 11785 layer_factory.hpp:77] Creating layer relu3_2
I0704 15:48:10.517261 11785 net.cpp:84] Creating Layer relu3_2
I0704 15:48:10.517264 11785 net.cpp:406] relu3_2 <- conv3_2
I0704 15:48:10.517269 11785 net.cpp:367] relu3_2 -> conv3_2 (in-place)
I0704 15:48:10.517276 11785 net.cpp:122] Setting up relu3_2
I0704 15:48:10.517297 11785 net.cpp:129] Top shape: 1 256 37 37 (350464)
I0704 15:48:10.517299 11785 net.cpp:137] Memory required for data: 41069312
I0704 15:48:10.517302 11785 layer_factory.hpp:77] Creating layer conv3_3
I0704 15:48:10.517328 11785 net.cpp:84] Creating Layer conv3_3
I0704 15:48:10.517333 11785 net.cpp:406] conv3_3 <- conv3_2
I0704 15:48:10.517338 11785 net.cpp:380] conv3_3 -> conv3_3
I0704 15:48:10.520541 11785 net.cpp:122] Setting up conv3_3
I0704 15:48:10.520555 11785 net.cpp:129] Top shape: 1 256 37 37 (350464)
I0704 15:48:10.520556 11785 net.cpp:137] Memory required for data: 42471168
I0704 15:48:10.520579 11785 layer_factory.hpp:77] Creating layer relu3_3
I0704 15:48:10.520586 11785 net.cpp:84] Creating Layer relu3_3
I0704 15:48:10.520588 11785 net.cpp:406] relu3_3 <- conv3_3
I0704 15:48:10.520592 11785 net.cpp:367] relu3_3 -> conv3_3 (in-place)
I0704 15:48:10.520597 11785 net.cpp:122] Setting up relu3_3
I0704 15:48:10.520601 11785 net.cpp:129] Top shape: 1 256 37 37 (350464)
I0704 15:48:10.520620 11785 net.cpp:137] Memory required for data: 43873024
I0704 15:48:10.520623 11785 layer_factory.hpp:77] Creating layer pool3
I0704 15:48:10.520628 11785 net.cpp:84] Creating Layer pool3
I0704 15:48:10.520645 11785 net.cpp:406] pool3 <- conv3_3
I0704 15:48:10.520650 11785 net.cpp:380] pool3 -> pool3
I0704 15:48:10.520711 11785 net.cpp:122] Setting up pool3
I0704 15:48:10.520716 11785 net.cpp:129] Top shape: 1 256 19 19 (92416)
I0704 15:48:10.520718 11785 net.cpp:137] Memory required for data: 44242688
I0704 15:48:10.520721 11785 layer_factory.hpp:77] Creating layer conv4_1
I0704 15:48:10.520750 11785 net.cpp:84] Creating Layer conv4_1
I0704 15:48:10.520752 11785 net.cpp:406] conv4_1 <- pool3
I0704 15:48:10.520773 11785 net.cpp:380] conv4_1 -> conv4_1
I0704 15:48:10.527879 11785 net.cpp:122] Setting up conv4_1
I0704 15:48:10.527909 11785 net.cpp:129] Top shape: 1 512 19 19 (184832)
I0704 15:48:10.527914 11785 net.cpp:137] Memory required for data: 44982016
I0704 15:48:10.527927 11785 layer_factory.hpp:77] Creating layer relu4_1
I0704 15:48:10.527938 11785 net.cpp:84] Creating Layer relu4_1
I0704 15:48:10.527945 11785 net.cpp:406] relu4_1 <- conv4_1
I0704 15:48:10.527963 11785 net.cpp:367] relu4_1 -> conv4_1 (in-place)
I0704 15:48:10.527972 11785 net.cpp:122] Setting up relu4_1
I0704 15:48:10.527978 11785 net.cpp:129] Top shape: 1 512 19 19 (184832)
I0704 15:48:10.527981 11785 net.cpp:137] Memory required for data: 45721344
I0704 15:48:10.527986 11785 layer_factory.hpp:77] Creating layer conv4_2
I0704 15:48:10.527997 11785 net.cpp:84] Creating Layer conv4_2
I0704 15:48:10.528000 11785 net.cpp:406] conv4_2 <- conv4_1
I0704 15:48:10.528007 11785 net.cpp:380] conv4_2 -> conv4_2
I0704 15:48:10.540973 11785 net.cpp:122] Setting up conv4_2
I0704 15:48:10.540997 11785 net.cpp:129] Top shape: 1 512 19 19 (184832)
I0704 15:48:10.541000 11785 net.cpp:137] Memory required for data: 46460672
I0704 15:48:10.541018 11785 layer_factory.hpp:77] Creating layer relu4_2
I0704 15:48:10.541048 11785 net.cpp:84] Creating Layer relu4_2
I0704 15:48:10.541054 11785 net.cpp:406] relu4_2 <- conv4_2
I0704 15:48:10.541060 11785 net.cpp:367] relu4_2 -> conv4_2 (in-place)
I0704 15:48:10.541069 11785 net.cpp:122] Setting up relu4_2
I0704 15:48:10.541072 11785 net.cpp:129] Top shape: 1 512 19 19 (184832)
I0704 15:48:10.541088 11785 net.cpp:137] Memory required for data: 47200000
I0704 15:48:10.541092 11785 layer_factory.hpp:77] Creating layer conv4_3
I0704 15:48:10.541103 11785 net.cpp:84] Creating Layer conv4_3
I0704 15:48:10.541107 11785 net.cpp:406] conv4_3 <- conv4_2
I0704 15:48:10.541112 11785 net.cpp:380] conv4_3 -> conv4_3
I0704 15:48:10.553344 11785 net.cpp:122] Setting up conv4_3
I0704 15:48:10.553367 11785 net.cpp:129] Top shape: 1 512 19 19 (184832)
I0704 15:48:10.553371 11785 net.cpp:137] Memory required for data: 47939328
I0704 15:48:10.553381 11785 layer_factory.hpp:77] Creating layer relu4_3
I0704 15:48:10.553392 11785 net.cpp:84] Creating Layer relu4_3
I0704 15:48:10.553416 11785 net.cpp:406] relu4_3 <- conv4_3
I0704 15:48:10.553422 11785 net.cpp:367] relu4_3 -> conv4_3 (in-place)
I0704 15:48:10.553431 11785 net.cpp:122] Setting up relu4_3
I0704 15:48:10.553437 11785 net.cpp:129] Top shape: 1 512 19 19 (184832)
I0704 15:48:10.553439 11785 net.cpp:137] Memory required for data: 48678656
I0704 15:48:10.553444 11785 layer_factory.hpp:77] Creating layer pool4
I0704 15:48:10.553452 11785 net.cpp:84] Creating Layer pool4
I0704 15:48:10.553457 11785 net.cpp:406] pool4 <- conv4_3
I0704 15:48:10.553474 11785 net.cpp:380] pool4 -> pool4
I0704 15:48:10.553522 11785 net.cpp:122] Setting up pool4
I0704 15:48:10.553527 11785 net.cpp:129] Top shape: 1 512 10 10 (51200)
I0704 15:48:10.553530 11785 net.cpp:137] Memory required for data: 48883456
I0704 15:48:10.553547 11785 layer_factory.hpp:77] Creating layer conv5_1
I0704 15:48:10.553571 11785 net.cpp:84] Creating Layer conv5_1
I0704 15:48:10.553575 11785 net.cpp:406] conv5_1 <- pool4
I0704 15:48:10.553582 11785 net.cpp:380] conv5_1 -> conv5_1
I0704 15:48:10.566421 11785 net.cpp:122] Setting up conv5_1
I0704 15:48:10.566445 11785 net.cpp:129] Top shape: 1 512 10 10 (51200)
I0704 15:48:10.566462 11785 net.cpp:137] Memory required for data: 49088256
I0704 15:48:10.566470 11785 layer_factory.hpp:77] Creating layer relu5_1
I0704 15:48:10.566498 11785 net.cpp:84] Creating Layer relu5_1
I0704 15:48:10.566504 11785 net.cpp:406] relu5_1 <- conv5_1
I0704 15:48:10.566524 11785 net.cpp:367] relu5_1 -> conv5_1 (in-place)
I0704 15:48:10.566531 11785 net.cpp:122] Setting up relu5_1
I0704 15:48:10.566537 11785 net.cpp:129] Top shape: 1 512 10 10 (51200)
I0704 15:48:10.566540 11785 net.cpp:137] Memory required for data: 49293056
I0704 15:48:10.566545 11785 layer_factory.hpp:77] Creating layer conv5_2
I0704 15:48:10.566555 11785 net.cpp:84] Creating Layer conv5_2
I0704 15:48:10.566560 11785 net.cpp:406] conv5_2 <- conv5_1
I0704 15:48:10.566567 11785 net.cpp:380] conv5_2 -> conv5_2
I0704 15:48:10.579032 11785 net.cpp:122] Setting up conv5_2
I0704 15:48:10.579059 11785 net.cpp:129] Top shape: 1 512 10 10 (51200)
I0704 15:48:10.579062 11785 net.cpp:137] Memory required for data: 49497856
I0704 15:48:10.579074 11785 layer_factory.hpp:77] Creating layer relu5_2
I0704 15:48:10.579085 11785 net.cpp:84] Creating Layer relu5_2
I0704 15:48:10.579107 11785 net.cpp:406] relu5_2 <- conv5_2
I0704 15:48:10.579114 11785 net.cpp:367] relu5_2 -> conv5_2 (in-place)
I0704 15:48:10.579123 11785 net.cpp:122] Setting up relu5_2
I0704 15:48:10.579130 11785 net.cpp:129] Top shape: 1 512 10 10 (51200)
I0704 15:48:10.579133 11785 net.cpp:137] Memory required for data: 49702656
I0704 15:48:10.579138 11785 layer_factory.hpp:77] Creating layer conv5_3
I0704 15:48:10.579167 11785 net.cpp:84] Creating Layer conv5_3
I0704 15:48:10.579170 11785 net.cpp:406] conv5_3 <- conv5_2
I0704 15:48:10.579175 11785 net.cpp:380] conv5_3 -> conv5_3
I0704 15:48:10.591234 11785 net.cpp:122] Setting up conv5_3
I0704 15:48:10.591259 11785 net.cpp:129] Top shape: 1 512 10 10 (51200)
I0704 15:48:10.591262 11785 net.cpp:137] Memory required for data: 49907456
I0704 15:48:10.591270 11785 layer_factory.hpp:77] Creating layer relu5_3
I0704 15:48:10.591312 11785 net.cpp:84] Creating Layer relu5_3
I0704 15:48:10.591316 11785 net.cpp:406] relu5_3 <- conv5_3
I0704 15:48:10.591337 11785 net.cpp:367] relu5_3 -> conv5_3 (in-place)
I0704 15:48:10.591346 11785 net.cpp:122] Setting up relu5_3
I0704 15:48:10.591351 11785 net.cpp:129] Top shape: 1 512 10 10 (51200)
I0704 15:48:10.591356 11785 net.cpp:137] Memory required for data: 50112256
I0704 15:48:10.591359 11785 layer_factory.hpp:77] Creating layer pool5
I0704 15:48:10.591373 11785 net.cpp:84] Creating Layer pool5
I0704 15:48:10.591377 11785 net.cpp:406] pool5 <- conv5_3
I0704 15:48:10.591383 11785 net.cpp:380] pool5 -> pool5
I0704 15:48:10.591434 11785 net.cpp:122] Setting up pool5
I0704 15:48:10.591439 11785 net.cpp:129] Top shape: 1 512 5 5 (12800)
I0704 15:48:10.591441 11785 net.cpp:137] Memory required for data: 50163456
I0704 15:48:10.591488 11785 layer_factory.hpp:77] Creating layer fc6_new
I0704 15:48:10.591514 11785 net.cpp:84] Creating Layer fc6_new
I0704 15:48:10.591518 11785 net.cpp:406] fc6_new <- pool5
I0704 15:48:10.591539 11785 net.cpp:380] fc6_new -> fc6_new
I0704 15:48:10.615815 11785 net.cpp:122] Setting up fc6_new
I0704 15:48:10.615839 11785 net.cpp:129] Top shape: 1 1024 3 3 (9216)
I0704 15:48:10.615841 11785 net.cpp:137] Memory required for data: 50200320
I0704 15:48:10.615864 11785 layer_factory.hpp:77] Creating layer relu6
I0704 15:48:10.615895 11785 net.cpp:84] Creating Layer relu6
I0704 15:48:10.615900 11785 net.cpp:406] relu6 <- fc6_new
I0704 15:48:10.615919 11785 net.cpp:367] relu6 -> fc6_new (in-place)
I0704 15:48:10.615931 11785 net.cpp:122] Setting up relu6
I0704 15:48:10.615937 11785 net.cpp:129] Top shape: 1 1024 3 3 (9216)
I0704 15:48:10.615941 11785 net.cpp:137] Memory required for data: 50237184
I0704 15:48:10.615944 11785 layer_factory.hpp:77] Creating layer drop6
I0704 15:48:10.615962 11785 net.cpp:84] Creating Layer drop6
I0704 15:48:10.615964 11785 net.cpp:406] drop6 <- fc6_new
I0704 15:48:10.615984 11785 net.cpp:367] drop6 -> fc6_new (in-place)
I0704 15:48:10.616019 11785 net.cpp:122] Setting up drop6
I0704 15:48:10.616025 11785 net.cpp:129] Top shape: 1 1024 3 3 (9216)
I0704 15:48:10.616041 11785 net.cpp:137] Memory required for data: 50274048
I0704 15:48:10.616045 11785 layer_factory.hpp:77] Creating layer fc7_new
I0704 15:48:10.616072 11785 net.cpp:84] Creating Layer fc7_new
I0704 15:48:10.616094 11785 net.cpp:406] fc7_new <- fc6_new
I0704 15:48:10.616101 11785 net.cpp:380] fc7_new -> fc7_new
I0704 15:48:10.621480 11785 net.cpp:122] Setting up fc7_new
I0704 15:48:10.621496 11785 net.cpp:129] Top shape: 1 1024 3 3 (9216)
I0704 15:48:10.621500 11785 net.cpp:137] Memory required for data: 50310912
I0704 15:48:10.621506 11785 layer_factory.hpp:77] Creating layer relu7
I0704 15:48:10.621512 11785 net.cpp:84] Creating Layer relu7
I0704 15:48:10.621533 11785 net.cpp:406] relu7 <- fc7_new
I0704 15:48:10.621541 11785 net.cpp:367] relu7 -> fc7_new (in-place)
I0704 15:48:10.621562 11785 net.cpp:122] Setting up relu7
I0704 15:48:10.621584 11785 net.cpp:129] Top shape: 1 1024 3 3 (9216)
I0704 15:48:10.621587 11785 net.cpp:137] Memory required for data: 50347776
I0704 15:48:10.621589 11785 layer_factory.hpp:77] Creating layer drop7
I0704 15:48:10.621610 11785 net.cpp:84] Creating Layer drop7
I0704 15:48:10.621613 11785 net.cpp:406] drop7 <- fc7_new
I0704 15:48:10.621618 11785 net.cpp:367] drop7 -> fc7_new (in-place)
I0704 15:48:10.621672 11785 net.cpp:122] Setting up drop7
I0704 15:48:10.621691 11785 net.cpp:129] Top shape: 1 1024 3 3 (9216)
I0704 15:48:10.621693 11785 net.cpp:137] Memory required for data: 50384640
I0704 15:48:10.621695 11785 layer_factory.hpp:77] Creating layer score_fr_new
I0704 15:48:10.621721 11785 net.cpp:84] Creating Layer score_fr_new
I0704 15:48:10.621726 11785 net.cpp:406] score_fr_new <- fc7_new
I0704 15:48:10.621744 11785 net.cpp:380] score_fr_new -> score_fr_new
I0704 15:48:10.622069 11785 net.cpp:122] Setting up score_fr_new
I0704 15:48:10.622076 11785 net.cpp:129] Top shape: 1 21 3 3 (189)
I0704 15:48:10.622078 11785 net.cpp:137] Memory required for data: 50385396
I0704 15:48:10.622083 11785 layer_factory.hpp:77] Creating layer upscore_new
I0704 15:48:10.622092 11785 net.cpp:84] Creating Layer upscore_new
I0704 15:48:10.622113 11785 net.cpp:406] upscore_new <- score_fr_new
I0704 15:48:10.622119 11785 net.cpp:380] upscore_new -> upscore_new
I0704 15:48:10.635192 11785 net.cpp:122] Setting up upscore_new
I0704 15:48:10.635218 11785 net.cpp:129] Top shape: 1 21 144 144 (435456)
I0704 15:48:10.635222 11785 net.cpp:137] Memory required for data: 52127220
I0704 15:48:10.635273 11785 layer_factory.hpp:77] Creating layer score
I0704 15:48:10.635305 11785 net.cpp:84] Creating Layer score
I0704 15:48:10.635310 11785 net.cpp:406] score <- upscore_new
I0704 15:48:10.635318 11785 net.cpp:406] score <- data_data_0_split_1
I0704 15:48:10.635324 11785 net.cpp:380] score -> score
I0704 15:48:10.635462 11785 net.cpp:122] Setting up score
I0704 15:48:10.635468 11785 net.cpp:129] Top shape: 1 21 128 128 (344064)
I0704 15:48:10.635470 11785 net.cpp:137] Memory required for data: 53503476
I0704 15:48:10.635474 11785 layer_factory.hpp:77] Creating layer loss
I0704 15:48:10.635481 11785 net.cpp:84] Creating Layer loss
I0704 15:48:10.635504 11785 net.cpp:406] loss <- score
I0704 15:48:10.635506 11785 net.cpp:406] loss <- label
I0704 15:48:10.635532 11785 net.cpp:380] loss -> loss
I0704 15:48:10.635541 11785 layer_factory.hpp:77] Creating layer loss
…
